…
 [0. 0. 0. ... 1. 1. 1.]
 [0. 0. 0. ... 1. 1. 1.]
 [0. 0. 0. ... 1. 1. 1.]]
2023-08-14 11:41:21,199 - INFO - adding time
2023-08-14 11:41:25,455 - INFO - geo graph links: 1008.0
2023-08-14 11:41:25,457 - INFO - data_shape: (134, 4608, 12)
2023-08-14 11:41:25,458 - INFO - graph: [[1. 1. 1. ... 0. 0. 0.]
 [1. 1. 1. ... 0. 0. 0.]
 [1. 1. 1. ... 0. 0. 0.]
 ...
 [0. 0. 0. ... 1. 1. 1.]
 [0. 0. 0. ... 1. 1. 1.]
 [0. 0. 0. ... 1. 1. 1.]]
2023-08-14 11:41:29,188 - INFO - receptive_field: 43
2023-08-14 11:41:29,196 - INFO - MTGNN(
  (filter_convs): ModuleList(
    (0): DilatedInception(
      (tconv): ModuleList(
        (0): Conv2d(32, 8, kernel_size=(1, 2), stride=(1, 1))
        (1): Conv2d(32, 8, kernel_size=(1, 3), stride=(1, 1))
        (2): Conv2d(32, 8, kernel_size=(1, 6), stride=(1, 1))
        (3): Conv2d(32, 8, kernel_size=(1, 7), stride=(1, 1))
      )
    )
    (1): DilatedInception(
      (tconv): ModuleList(
        (0): Conv2d(32, 8, kernel_size=(1, 2), stride=(1, 1), dilation=(1, 2))
        (1): Conv2d(32, 8, kernel_size=(1, 3), stride=(1, 1), dilation=(1, 2))
        (2): Conv2d(32, 8, kernel_size=(1, 6), stride=(1, 1), dilation=(1, 2))
        (3): Conv2d(32, 8, kernel_size=(1, 7), stride=(1, 1), dilation=(1, 2))
      )
    )
    (2): DilatedInception(
      (tconv): ModuleList(
        (0): Conv2d(32, 8, kernel_size=(1, 2), stride=(1, 1), dilation=(1, 4))
        (1): Conv2d(32, 8, kernel_size=(1, 3), stride=(1, 1), dilation=(1, 4))
        (2): Conv2d(32, 8, kernel_size=(1, 6), stride=(1, 1), dilation=(1, 4))
        (3): Conv2d(32, 8, kernel_size=(1, 7), stride=(1, 1), dilation=(1, 4))
      )
    )
  )
  (gate_convs): ModuleList(
    (0): DilatedInception(
      (tconv): ModuleList(
        (0): Conv2d(32, 8, kernel_size=(1, 2), stride=(1, 1))
        (1): Conv2d(32, 8, kernel_size=(1, 3), stride=(1, 1))
        (2): Conv2d(32, 8, kernel_size=(1, 6), stride=(1, 1))
        (3): Conv2d(32, 8, kernel_size=(1, 7), stride=(1, 1))
      )
    )
    (1): DilatedInception(
      (tconv): ModuleList(
        (0): Conv2d(32, 8, kernel_size=(1, 2), stride=(1, 1), dilation=(1, 2))
        (1): Conv2d(32, 8, kernel_size=(1, 3), stride=(1, 1), dilation=(1, 2))
        (2): Conv2d(32, 8, kernel_size=(1, 6), stride=(1, 1), dilation=(1, 2))
        (3): Conv2d(32, 8, kernel_size=(1, 7), stride=(1, 1), dilation=(1, 2))
      )
    )
    (2): DilatedInception(
      (tconv): ModuleList(
        (0): Conv2d(32, 8, kernel_size=(1, 2), stride=(1, 1), dilation=(1, 4))
        (1): Conv2d(32, 8, kernel_size=(1, 3), stride=(1, 1), dilation=(1, 4))
        (2): Conv2d(32, 8, kernel_size=(1, 6), stride=(1, 1), dilation=(1, 4))
        (3): Conv2d(32, 8, kernel_size=(1, 7), stride=(1, 1), dilation=(1, 4))
      )
    )
  )
  (residual_convs): ModuleList(
    (0-2): 3 x Conv2d(32, 32, kernel_size=(1, 1), stride=(1, 1))
  )
  (skip_convs): ModuleList(
    (0): Conv2d(32, 64, kernel_size=(1, 138), stride=(1, 1))
    (1): Conv2d(32, 64, kernel_size=(1, 126), stride=(1, 1))
    (2): Conv2d(32, 64, kernel_size=(1, 102), stride=(1, 1))
  )
  (gconv1): ModuleList(
    (0-2): 3 x MixProp(
      (nconv): NConv()
      (mlp): Linear(
        (mlp): Conv2d(96, 32, kernel_size=(1, 1), stride=(1, 1))
      )
    )
  )
  (gconv2): ModuleList(
    (0-2): 3 x MixProp(
      (nconv): NConv()
      (mlp): Linear(
        (mlp): Conv2d(96, 32, kernel_size=(1, 1), stride=(1, 1))
      )
    )
  )
  (norm): ModuleList(
    (0): LayerNorm((32, 134, 138), eps=1e-05, elementwise_affine=True)
    (1): LayerNorm((32, 134, 126), eps=1e-05, elementwise_affine=True)
    (2): LayerNorm((32, 134, 102), eps=1e-05, elementwise_affine=True)
  )
  (start_conv): Conv2d(5, 32, kernel_size=(1, 1), stride=(1, 1))
  (end_conv_1): Conv2d(64, 128, kernel_size=(1, 1), stride=(1, 1))
  (end_conv_2): Conv2d(128, 288, kernel_size=(1, 1), stride=(1, 1))
  (skip0): Conv2d(5, 64, kernel_size=(1, 144), stride=(1, 1))
  (skipE): Conv2d(32, 64, kernel_size=(1, 102), stride=(1, 1))
)
2023-08-14 11:41:29,198 - INFO - filter_convs.0.tconv.0.weight	torch.Size([8, 32, 1, 2])	cuda:0	True
2023-08-14 11:41:29,198 - INFO - filter_convs.0.tconv.0.bias	torch.Size([8])	cuda:0	True
2023-08-14 11:41:29,198 - INFO - filter_convs.0.tconv.1.weight	torch.Size([8, 32, 1, 3])	cuda:0	True
2023-08-14 11:41:29,198 - INFO - filter_convs.0.tconv.1.bias	torch.Size([8])	cuda:0	True
…
